activity_recognition_lstm_finetuned.pth (torch, 87200 bytes, 6 tensors)

lstm.weight_ih_l0 f4 [256, 15]
-0.30224097 0.3031767 0.58813083 0.37066522 -0.5214316 0.4445109 0.27214554 0.012002997
-0.078587264 1.224473 0.2565048 1.0820233 0.20346971 -0.23561944 0.95052713 -0.356258
-0.4348243 0.8694762 -0.158483 0.0562111 -0.57907164 -0.06866817 1.0499313 0.050295427
0.33456987 -1.2373428 -0.8195801 0.8553932 -0.16051033 -0.20548463 0.13745818 -0.2459631
0.61842656 0.1496237 0.16963029 0.5330939 0.26564154 0.61392426 -0.40669343 -0.07219581
0.33864978 -0.87937564 3.0304377 -0.18860221 -0.44790784 0.14908208 0.73606884 -0.48496076
-0.58463305 -0.06022821 0.010300656 0.1747602 -0.084607884 0.2979619 0.7090567 -0.51437604
0.97953355 0.6086993 0.15831828 -0.3705566 0.72006404 0.19975428 0.19324319 1.2276937
0.40815365 -1.0542245 0.08832796 -0.038395192 -0.19586001 -1.3414813 -0.07603163 -0.71320045
0.2105082 -0.080330335 -0.82462007 0.8282818 -0.5230732 -0.109077886 0.7681179 -1.4076945
0.73591036 0.018317642 -0.6791998 0.52845013 0.12475824 -0.42422837 0.62476754 -0.053329747
-0.18524183 -0.4905765 0.068563096 -0.27307522 0.24261965 0.11103914 -0.62982243 1.3418088
-0.08028819 0.120897904 -0.7444054 -1.2351183 -0.08915712 -0.25055107 0.002113101 0.041882064
0.012068758 -0.32616737 0.6207865 -0.46801353 1.9673821 -0.06003001 -1.0631162 0.117237434
0.35624763 0.94301206 -0.3464154 -1.0934111 0.12170363 -0.48773208 -0.063558295 0.8959252
-0.5058228 -0.5076563 0.2119493 0.69497746 -0.40767795 -0.540979 0.33441108 0.15422599
0.2093013 -0.80184895 1.4186565 -1.0825604 -0.22570226 -0.020285675 -1.5407013 0.11527914
0.8271866 0.13269238 -0.41717866 0.76525766 -0.22082613 -0.33184177 -0.42228284 -0.845551
-0.14723009 -0.058337264 -0.6612074 0.35748917 0.7462059 -0.53502935 -0.017894555 -0.2767599
0.076102525 1.1286556 -0.8586436 -1.4689806 -0.05872536 -0.074198104 0.5316212 -0.9229289
-1.6448375 -0.39611992 0.4367197 -0.23663417 -1.0143559 0.74696374 -0.8831301 0.46341947
0.072595075 -0.62328994 0.28345406 0.77865577 -0.16274649 -0.5264702 -0.05599894 0.68391544
0.7026808 -1.4136767 -0.4385934 -0.32040837 -0.10418815 -0.17169808 -0.3600001 1.1829854
-1.1894683 1.7158272 -0.74566954 -0.09711402 0.4436571 0.17687538 0.5130657 0.5546857
0.36882284 -0.90032166 -0.96652573 0.049463473 1.0009089 0.30957854 2.0654504 -0.84373313
0.1318713 -0.8707325 0.49721575 -0.071922645 0.87062675 0.6296754 0.09053495 0.14426017
0.4689896 0.13666846 0.094339624 1.0582541 0.18174203 -0.5236329 0.99157923 0.23759213
-0.31125677 -1.3718339 0.27290252 -0.09791024 -0.80397946 -0.042233028 -2.4127204 0.25388876
0.24720009 -0.8221373 0.5143967 0.3202094 -0.7921835 -0.15291944 -0.42813253 -0.8421169
0.79912657 -0.26990378 -0.19668393 -1.0950378 0.03762964 0.97584015 0.26675653 0.074141465
-0.4366219 -1.2842768 -0.9775058 -0.28037092 -1.7501882 -0.22326946 1.1094425 0.32075515
0.49659857 0.02415923 0.5507096 -0.31227362 -0.30353028 0.96316177 -0.03473957 1.0433946
00000000: 54bf 9abe fa39 9b3e be8f 163f d5c7 bd3e
00000010: 8b7c 05bf ef96 e33e a956 8b3e 38a8 443c
00000020: 5cf2 a0bd 88bb 9c3f 9954 833e bd7f 8a3f
00000030: 5d5a 503e 3946 71be bf55 733f 7367 b6be
00000040: 4aa1 debe fe95 5e3f 5e49 22be 9c3d 663d
00000050: 0a3e 14bf e6a1 8cbd 2664 863f 9402 4e3d
00000060: be4c ab3e 4061 9ebf 00d0 51bf 0cfb 5a3f
00000070: d25c 24be 906a 52be d6c1 0c3e c0dd 7bbe
00000080: 3451 1e3f f536 193e 90b3 2d3e d878 083f
00000090: 2b02 883e 242a 1d3f 1f3a d0be 66db 93bd
000000a0: 8163 ad3e c31e 61bf b1f2 4140 f020 41be
000000b0: 2d54 e5be f9a8 183e 026f 3c3f c74c f8be
000000c0: 83aa 15bf dbb1 76bd 15c4 283c 56f4 323e
000000d0: e646 adbd 768e 983e bd84 353f 26ae 03bf
000000e0: b6c2 7a3f b8d3 1b3f 301e 223e 98b9 bdbe
000000f0: 1e56 383f 638c 4c3e 8be1 453e 1125 9d3f
00000100: 84f9 d03e d4f0 86bf 4ae5 b43d 4744 1dbd
00000110: 878f 48be a9b5 abbf 79b6 9bbd 4e94 36bf
00000120: 768f 573e 3b84 a4bd 4d1a 53bf 470a 543f
00000130: 20e8 05bf 3a64 dfbd 60a3 443f 552f b4bf
00000140: 9f64 3c3f e10e 963c 0ae0 2dbf 8248 073f
00000150: 4081 ff3d 7634 d9be c4f0 1f3f 4b70 5abd
00000160: 09b0 3dbe d82c fbbe cf6a 8c3d 84d0 8bbe
00000170: 4971 783e 7d68 e33d 0b3c 21bf 64c0 ab3f
00000180: 226e a4bd 5299 f73d 5a91 3ebf 5b18 9ebf
00000190: 0298 b6bd 3b48 80be f47b 0a3b 878c 2b3d
000001a0: 0abc 453c 69ff a6be ddeb 1e3f 789f efbe
000001b0: 2dd3 fb3f 07e2 75bd 3114 88bf 2e1a f03d
000001c0: 1766 b63e 3d69 713f 5c5d b1be e5f4 8bbf
000001d0: c13f f93d 05b8 f9be da2a 82bd 5b5b 653f
000001e0: 9a7d 01bf c3f5 01bf 3d09 593e 0bea 313f
000001f0: 2abb d0be 9a7d 0abf ee37 ab3e 6bed 1d3e
00000200: 1453 563e f945 4dbf 8996 b53f 5791 8abf
00000210: 7e1e 67be 252e a6bc b335 c5bf 7817 ec3d
00000220: 80c2 533f 83e0 073e 7198 d5be ede7 433f
00000230: 3f20 62be 2ae7 a9be 7535 d8be 0876 58bf
00000240: 7cc3 16be 0ef3 6ebd e344 29bf d208 b73e
00000250: 5a07 3f3f aff7 08bf 9a97 92bc 79b3 8dbe
00000260: a4db 9b3d c977 903f 11d0 5bbf 8e07 bcbf
00000270: 018a 70bd 2df5 97bd 5418 083f 1245 6cbf
00000280: 098a d2bf 3bd0 cabe b999 df3e 3a50 72be
00000290: 6ad6 81bf 0439 3f3f d014 62bf 5145 ed3e
000002a0: baac 943d ee8f 1fbf e420 913e fc55 473f
000002b0: 04a7 26be c0c6 06bf 255f 65bd 1515 2f3f
000002c0: e4e2 333f 5cf3 b4bf 508f e0be 910c a4be
000002d0: 9960 d5bd 9fd1 2fbe ef51 b8be 116c 973f
000002e0: 7f40 98bf 3aa0 db3f 33e4 3ebf b7e3 c6bd
000002f0: 0627 e33e d21e 353e 4658 033f e2ff 0d3f
00000300: 59d6 bc3e 7b7b 66bf 3b6e 77bf 369a 4a3d
00000310: c81d 803f 1481 9e3e 5730 0440 e5fe 57bf
00000320: 4509 073e 53e8 5ebf 1093 fe3e 2e4c 93bd
00000330: 65e1 5e3f 6832 213f 636a b93d f0b8 133e
00000340: 681f f03e d1f2 0b3e 2235 c13d df74 873f
00000350: 951a 3a3e ce0c 06bf 23d8 7d3f 5a4b 733e
00000360: 0c5d 9fbe 4198 afbf e1b9 8b3e 2a85 c8bd
00000370: 99d1 4dbf 8afc 2cbd 036a 1ac0 b5fd 813e
00000380: 0522 7d3e 9777 52bf 81af 033f 7df2 a33e
00000390: 8acc 4abf ea96 1cbe 3034 dbbe f994 57bf
000003a0: 8f93 4c3f d430 8abe 8367 49be 332a 8cbf
000003b0: 8a21 1a3d a9d0 793f 5094 883e 7bd7 973d
000003c0: e88c dfbe 2f63 a4bf d23d 7abf c78c 8fbe
000003d0: 2b06 e0bf c0a0 64be 3602 8e3f 053a a43e
000003e0: 2b42 fe3e 94e9 c53c 4efb 0c3f 54e2 9fbe
000003f0: 5268 9bbe c591 763f 144b 0ebd f48d 853f

lstm.weight_hh_l0 f4 [256, 64]
-0.73352665 0.771176 0.42094374 -0.055957478 -0.76666504 -0.037650432 0.23366304 0.76311785
-0.8439558 0.73541814 0.3171515 -0.6950939 0.22954004 -0.084085576 -0.9905826 0.4402761
0.11180588 -0.0846513 0.83228314 0.15972887 1.029549 1.1520787 0.58346677 0.29812428
0.050686304 0.20957458 1.3200245 0.24775627 0.27818263 -0.73424304 -0.5473478 0.33609295
1.0504273 0.93536115 0.4374395 0.10047778 -0.09215722 0.12602058 0.22263283 0.485434
-0.06614008 1.1406265 -1.070112 -0.7333822 -0.51213413 -0.24199438 -0.39253542 -0.7186829
0.63959557 0.035981953 0.36790422 -0.17211181 0.5907702 -0.59572965 0.50758475 -0.4144985
-0.3548925 -0.23229885 -0.021811338 -0.79295117 0.5947737 -0.23507705 -0.10080935 -0.82156664
1.1429391 -0.54015994 0.25429797 -0.08350469 -0.8781349 0.0378437 -0.8393403 -0.011779438
-0.9356663 0.16792542 -0.9049903 0.88597274 0.31493852 1.3548508 1.2059002 -0.14439864
-0.15052083 -0.22764158 -0.13861898 0.022021415 0.55094904 1.048074 0.5772294 -1.0529642
-0.06290509 0.13728113 0.045058127 0.66385597 -1.3518771 -1.3317493 -0.6758559 1.0352912
-0.35341015 -0.21811482 0.805828 -0.19360358 0.6436299 0.31027073 -1.0532558 0.004618954
1.1002103 0.71106523 0.24324046 0.80206376 0.8987539 0.65393215 1.0368855 -0.16328381
-1.3820316 0.17890777 0.17761959 -0.17301925 -0.16918954 0.34776953 -0.025496993 -0.5643032
-0.320509 -0.5640719 -0.26263252 0.29722625 -0.07462437 -1.2203313 1.019032 0.6187592
0.027923975 0.33528465 -0.09937491 0.14631288 1.0917286 0.0012768412 0.07582007 0.45797145
-0.33845735 -0.28684443 -0.7058417 0.12819158 0.29136783 0.93950576 -0.32877845 0.29405022
-0.05524208 0.33071128 -0.56059754 0.5125767 0.41182923 0.77760077 0.7540695 -0.42787856
1.1505618 -0.37089697 -0.870988 -0.5998567 0.7136399 0.5283868 -1.5312551 0.56481683
0.53762335 0.5900187 0.4596646 0.7014793 0.18985336 -0.88580376 -0.43939385 -0.96549135
0.700651 -1.4521778 -0.88166237 0.7563401 -0.35314244 -0.4140038 0.8672764 -0.2851764
-0.22641143 0.41246295 0.057572667 -0.5360317 -1.3048359 -0.08244976 0.28307062 -0.26340654
-0.5193922 -0.50233394 -0.036468465 -0.37492946 0.31471667 -0.88192266 -0.20012382 0.19964787
0.6711959 -1.0319663 -0.6108593 -0.51702183 0.6233776 -0.10629171 -0.6326004 -0.002078023
0.117222436 0.06876937 -0.115131676 0.04833867 0.8511158 -0.15647535 0.9389022 0.41338873
-0.4054899 0.63768756 0.26558754 0.2194431 0.06534811 0.30022052 0.26930892 0.1807274
-0.031416923 0.0897364 -0.024055157 0.21979846 -0.15995799 0.0428335 -0.6726679 -0.37299135
0.24398383 0.562382 -0.2772332 0.9004295 -0.17683165 -0.2930714 0.07377398 0.3202563
0.078511626 0.083005264 -0.06435694 0.28055716 -0.28705612 -0.446496 0.18008372 0.13263229
-0.84783286 0.4261005 0.09408129 0.7630331 -0.27423567 0.23555824 0.6914266 0.62920994
-1.2985966 0.06443131 0.7145567 -0.059861254 -0.0705125 0.0018677746 0.27079827 0.4323342
00000000: 67c8 3bbf ca6b 453f f085 d73e ab33 65bd
00000010: 2944 44bf 5737 1abd 5d45 6f3e b15b 433f
00000020: 7d0d 58bf 5d44 3c3f ae61 a23e adf1 31bf
00000030: 8b0c 6b3e 0f35 acbd d296 7dbf de6b e13e
00000040: 7bfa e43d a95d adbd 8210 553f f78f 233e
00000050: 43c8 833f 5177 933f 145e 153f bfa3 983e
00000060: 719c 4f3d b89a 563e 90f6 a83f d2b3 7d3e
00000070: f46d 8e3e 5af7 3bbf fc1e 0cbf 6014 ac3e
00000080: 6774 863f d473 6f3f 12f8 df3e 4bc7 cd3d
00000090: edbc bcbd 8a0b 013e dcf9 633e ce8a f83e
000000a0: 7374 87bd 0d00 923f 6ef9 88bf f0be 3bbf
000000b0: 391b 03bf 60cd 77be 67fa c8be 9afb 37bf
000000c0: 89bc 233f d061 133d f15d bc3e 143e 30be
000000d0: b73c 173f bd81 18bf 13f1 013f 2639 d4be
000000e0: 78b4 b5be c0df 6dbe b1ad b2bc d9fe 4abf
000000f0: 1743 183f 0ab8 70be 2275 cebd 3152 52bf
00000100: d44b 923f ec47 0abf 5833 823e 8204 abbd
00000110: 73cd 60bf ff01 1b3d 02df 56bf 8bfe 40bc
00000120: d487 6fbf a4f4 2b3e 72ad 67bf 1ccf 623f
00000130: 9f3f a13e c06b ad3f f05a 9a3f 3ddd 13be
00000140: 2222 1abe e01a 69be 22f2 0dbe 4166 b43c
00000150: ff0a 0d3f 4a27 863f 4ec5 133f 88c7 86bf
00000160: 62d4 80bd 6d93 0c3e df8e 383d 77f2 293f
00000170: 4f0a adbf c376 aabf e404 2dbf 6c84 843f
00000180: 2df2 b4be 7e59 5fbe be4a 4e3f 0440 46be
00000190: eec4 243f cedb 9e3e 16d1 86bf 985a 973b
000001a0: b1d3 8c3f 5f08 363f 0714 793e 0d54 4d3f
000001b0: bc14 663f 1968 273f aab8 843f df33 27be
000001c0: 69e6 b0bf 9933 373e e9e1 353e f52b 31be
000001d0: 0640 2dbe d90e b23e 12df d0bc 2d76 10bf
000001e0: c119 a4be 0467 10bf c577 86be 0a2e 983e
000001f0: a9d4 98bd d133 9cbf a46f 823f 0167 1e3f
00000200: d2c0 e43c 6eaa ab3e 1385 cbbd 0bd3 153e
00000210: c3bd 8b3f ae5b a73a 8e47 9b3d 3c7b ea3e
00000220: 484a adbe 46dd 92be 0bb2 34bf a744 033e
00000230: 2a2e 953e 7383 703f a655 a8be c08d 963e
00000240: 8545 62bd fd52 a93e 5283 0fbf 3a38 033f
00000250: 48db d23e d810 473f b30a 413f e612 dbbe
00000260: 9c45 933f 35e6 bdbe 12f9 5ebf 3590 19bf
00000270: 1bb1 363f 5b44 073f 2b00 c4bf d697 103f
00000280: afa1 093f 770b 173f 2959 eb3e 2694 333f
00000290: eb68 423e 09c4 62bf 3bf8 e0be 712a 77bf
000002a0: dd5d 333f f6e0 b9bf a0b4 61bf 819f 413f
000002b0: 16cf b4be 4ef8 d3be d305 5e3f a402 92be
000002c0: 66d8 67be 582e d33e 51d1 6b3d 6039 09bf
000002d0: dd04 a7bf 6bdb a8bd a2ee 903e 39dd 86be
000002e0: e3f6 04bf f598 00bf f55f 15bd c1f6 bfbe
000002f0: 8b22 a13e afc5 61bf 42ed 4cbe 7e70 4c3e
00000300: 7fd3 2b3f 7917 84bf 4661 1cbf 8b5b 04bf
00000310: ad95 1f3f 78af d9bd 1af2 21bf 712f 08bb
00000320: 5112 f03d f5d6 8c3d 28ca ebbd c5fe 453d
00000330: bae2 593f 133b 20be e55b 703f b0a7 d33e
00000340: 5f9c cfbe 7e3f 233f 17fb 873e b1b5 603e
00000350: 3bd5 853d 81b6 993e dce2 893e 9b10 393e
00000360: 08af 00bd b8c7 b73d 520f c5bc d912 613e
00000370: 07cc 23be 2e72 2f3d f733 2cbf b9f8 bebe
00000380: e6d6 793e 44f8 0f3f 83f1 8dbe 8c82 663f
00000390: 5b13 35be 740d 96be d016 973d a2f8 a33e
000003a0: b4ca a03d aafe a93d 92cd 83bd 30a5 8f3e
000003b0: 05f9 92be 209b e4be de67 383e c2d0 073e
000003c0: 930b 59bf d829 da3e b1ad c03d 2356 433f
000003d0: 9e68 8cbe 2e36 713e 5501 313f e713 213f
000003e0: 6a38 a6bf 90f4 833d 30ed 363f 1331 75bd
000003f0: dc68 90bd 1ed0 f43a 12a6 8a3e e95a dd3e

lstm.bias_ih_l0 f4 [256]
-1.0127399 -0.7915711 -0.24358626 -1.3900911 -1.3046817 -0.53771317 -0.72660553 -1.0422009
-0.09148203 -0.6677527 -1.0446786 -0.9381469 -0.5942106 -0.4435642 -0.42599186 -0.13197973
-0.809335 -0.28598428 -0.709778 -0.54415923 -1.0502847 0.41146407 -0.79762053 0.39508942
-0.723082 -0.4369008 -0.42377087 -0.24667342 -0.022683727 -0.92087585 -1.2042227 -1.0033566
-0.2737903 0.24497132 0.047964353 -0.8086978 -0.78888005 -0.46294567 -1.1004415 -0.32369787
-0.75896406 -0.61313504 -0.49051976 -0.34980494 -0.67185706 -0.037589766 -0.7126128 -0.45285073
-0.3767394 -0.9433199 -0.71285534 -1.4827088 -0.6629775 -1.4320664 -0.9482529 -0.8548205
-0.5540268 -0.7187203 -1.1885309 -0.64298654 -1.5650688 0.4205113 -0.19257292 -0.35107255
-0.88233167 -0.7980603 -0.29655814 -0.4158207 -1.2690226 -0.9075315 -0.83716375 -1.4727362
0.14964224 0.8823701 -1.3449972 -0.7926585 -0.28635967 -0.7871208 -0.28159848 -0.1846891
-0.30026093 0.2983734 -0.39073637 -0.39757958 -1.0029833 -0.16478333 -0.8294198 -0.258976
-0.946191 -0.24306996 -0.075944066 -0.6436177 -0.3086942 -1.0951966 -0.3747094 -0.48984623
0.16215003 0.24480298 -0.7900062 -0.43481022 -0.86137897 -0.41313767 -1.5592005 -0.46799156
0.10854957 -0.69253266 -0.5439409 0.3268514 -0.29454017 -0.14121392 0.27191123 -1.5685935
-0.4324604 -0.53394186 -0.5742299 -1.4637645 -0.67433214 -1.0244015 -0.93330294 -0.5428094
-0.4915211 -0.9528633 -0.115020595 -0.741354 -0.94327277 -0.2355347 -0.15121286 -0.48099774
0.18672757 -0.10773999 -0.30679157 0.016805299 -0.297955 0.47490543 0.3116033 0.22083661
-0.5233949 -0.15592107 -0.0037892824 -0.1166751 0.3218356 -0.21186042 0.20198841 -0.9400848
0.7900543 -0.30371135 -0.025024436 -0.3900338 -0.10586893 -0.120145254 0.17780511 -0.34236294
-0.1572674 -0.4850161 -0.3594714 -0.07392894 -0.10027382 0.56665725 -0.052174162 -0.6495054
-0.6602649 0.11663203 -1.1964382 0.42708966 -0.76726097 0.8252077 0.19216663 -0.35418326
-0.3837728 -0.3665133 -0.024758087 0.2542217 0.009439722 0.43315423 0.61419636 0.16430415
0.5076237 -0.25257725 -0.4214774 -0.017934904 0.4441237 0.22682683 -0.29857865 0.089925736
0.62635106 0.04614352 -0.19891818 0.15301432 -0.23575325 0.10601535 0.3109863 -0.5162064
-0.8685311 -0.53041464 -0.69574285 -1.4281679 -1.0622958 -0.56860274 -0.9159282 -0.64944583
-0.3070818 -0.7710496 -0.8178187 -1.0537549 -0.4211475 -1.2460715 -1.3959012 -1.1051587
-0.9299561 -1.0787374 -0.09885214 -0.27634048 -0.8386632 -0.58269364 -0.69186825 0.48148206
-0.9167991 -0.7712262 -0.73454565 -0.592261 -0.091103986 -0.8588382 -0.85027456 -1.140434
-0.8878925 -0.19284922 0.37620816 -1.3225255 -0.76990783 0.25225654 -1.1523514 -0.06469892
-0.37070805 -1.7529362 -1.3505676 -1.2477913 -0.3784101 -0.050985347 0.5465036 -0.19433975
-0.38454628 -0.52181137 -0.7940736 -1.3690492 -1.0846256 -1.452533 -0.59788865 -0.54856277
-1.0524042 -0.7576921 -1.1139579 -0.7001514 -1.2714055 -0.5037199 -0.34184113 -0.83113015
00000000: 76a1 81bf 67a4 4abf ad6e 79be 81ee b1bf
00000010: cfff a6bf 92a7 09bf d202 3abf d766 85bf
00000020: ee5a bbbd d7f1 2abf 07b8 85bf 652a 70bf
00000030: 301e 18bf d91a e3be 9b1b dabe b225 07be
00000040: 9430 4fbf 886c 92be 03b4 35bf 054e 0bbf
00000050: bb6f 86bf 6bab d23e dc30 4cbf 2949 ca3e
00000060: e71b 39bf 76b1 dfbe 7ff8 d8be f597 7cbe
00000070: 39d3 b9bc 85be 6bbf f823 9abf fd6d 80bf
00000080: 3e2e 8cbe c3d9 7a3e 4576 443d d206 4fbf
00000090: 0bf4 49bf 3707 edbe 44db 8cbf babb a5be
000000a0: 784b 42bf 6bf6 1cbf 6825 fbbe a219 b3be
000000b0: d3fe 2bbf baf7 19bd cb6d 36bf 0ddc e7be
000000c0: fde3 c0be 6a7d 71bf b07d 36bf 67c9 bdbf
000000d0: e5b8 29bf f44d b7bf b4c0 72bf 84d5 5abf
000000e0: b3d4 0dbf 0efe 37bf c821 98bf c49a 24bf
000000f0: 2d54 c8bf 424d d73e d631 45be c8bf b3be
00000100: 7de0 61bf ae4d 4cbf 78d6 97be 73e6 d4be
00000110: 556f a2bf fc53 68bf 5d50 56bf 9f82 bcbf
00000120: d13b 193e 02e3 613f de28 acbf abeb 4abf
00000130: bc9d 92be c080 49bf ad2d 90be 241f 3dbe
00000140: cdbb 99be 66c4 983e 990e c8be 8d8f cbbe
00000150: c261 80bf f6bc 28be db54 54bf 8198 84be
00000160: 9339 72bf 55e7 78be 9088 9bbd 21c4 24bf
00000170: 2b0d 9ebe 672f 8cbf e9d9 bfbe 20cd fabe
00000180: a80a 263e a2ad 7a3e d93d 4abf 729f debe
00000190: 5583 5cbf c886 d3be e293 c7bf 979c efbe
000001a0: 3d4f de3d d249 31bf b63f 0bbf 1159 a73e
000001b0: f8cd 96be 629a 10be f337 8b3e acc7 c8bf
000001c0: 736b ddbe 6ab0 08bf bb00 13bf a35c bbbf
000001d0: 08a1 2cbf 971f 83bf f1ec 6ebf 8ff5 0abf
000001e0: a7a8 fbbe d9ee 73bf eb8f ebbd 60c9 3dbf
000001f0: 537a 71bf 0230 71be 8bd7 1abe 5645 f6be
00000200: 8335 3f3e c9a6 dcbd c913 9dbe 44ab 893c
00000210: 8f8d 98be ce26 f33e 788a 9f3e fe22 623e
00000220: 35fd 05bf c6a9 1fbe 9c55 78bb 5bf3 eebd
00000230: a3c7 a43e f0f1 58be 0dd6 4e3e 66a9 70bf
00000240: 0041 4a3f 0e80 9bbe 0c00 cdbc 83b2 c7be
00000250: cfd1 d8bd b70e f6bd 8b12 363e 324a afbe
00000260: b50a 21be 0854 f8be a30c b8be 0e68 97bd
00000270: 5c5c cdbd 7310 113f 93b4 55bd fc45 26bf
00000280: 1f07 29bf c6dc ee3d e324 99bf 7fab da3e
00000290: 376b 44bf d040 533f 54c7 443e 8257 b5be
000002a0: de7d c4be a2a7 bbbe 79d1 cabc 5929 823e
000002b0: 10a9 1a3c 64c6 dd3e f93b 1d3f 593f 283e
000002c0: a0f3 013f ce51 81be e3cb d7be 38ec 92bc
000002d0: 2e64 e33e 4b45 683e 4ddf 98be fc2a b83d
000002e0: 8b58 203f fd00 3d3d 35b1 4bbe c9af 1c3e
000002f0: 4d69 71be 931e d93d 9939 9f3e 1a26 04bf
00000300: 0e58 5ebf 41c9 07bf 341c 32bf 35ce b6bf
00000310: 4ff9 87bf f38f 11bf 457a 6abf 1542 26bf
00000320: d339 9dbe 8263 45bf 915c 51bf 71e1 86bf
00000330: a5a0 d7be 457f 9fbf e4ac b2bf d775 8dbf
00000340: 9a11 6ebf 1114 8abf fe72 cabd 807c 8dbe
00000350: a2b2 56bf 692b 15bf 471e 31bf d184 f63e
00000360: 59b3 6abf 156f 45bf 2f0b 3cbf 6b9e 17bf
00000370: ba94 babd d2dc 5bbf 98ab 59bf bef9 91bf
00000380: ec4c 63bf 447a 45be 5b9e c03e 8448 a9bf
00000390: ae18 45bf c527 813e 4080 93bf de80 84bd
000003a0: 72cd bdbe 3760 e0bf 66df acbf a0b7 9fbf
000003b0: f8be c1be 03d6 50bd a9e7 0b3f 0001 47be
000003c0: 40e3 c4be 6e95 05bf 6848 4bbf 013d afbf
000003d0: 03d5 8abf 9aec b9bf 3b0f 19bf 9c6e 0cbf
000003e0: 2eb5 86bf 1cf8 41bf 2c96 8ebf 1f3d 33bf
000003f0: 6abd a2bf caf3 00bf cd05 afbe f2c4 54bf

lstm.bias_hh_l0 f4 [256]
-0.9205672 -0.85943836 -0.3890171 -1.2513734 -1.1635169 -0.62867516 -0.6486981 -0.96960163
-0.082877144 -0.661269 -0.82270163 -0.8466893 -0.57113445 -0.5608852 -0.44746098 -0.12983158
-0.8672513 -0.31203693 -0.7373312 -0.68940383 -1.071941 0.3520222 -0.94565177 0.24469995
-0.71352834 -0.5254251 -0.49165538 -0.34309274 -0.014772475 -0.8868341 -1.2881155 -0.89912957
-0.3019945 0.28667277 -0.07396892 -0.7592107 -0.83805746 -0.458417 -1.1174841 -0.40529394
-0.6808493 -0.68850225 -0.3112048 -0.26275104 -0.71482915 0.06586306 -0.59733707 -0.54224616
-0.43549737 -0.94113326 -0.70700395 -1.3708721 -0.7071236 -1.4342573 -0.91188836 -0.9521789
-0.5637557 -0.5587293 -1.0725889 -0.74080276 -1.4587632 0.26886576 -0.07826242 -0.5565577
-1.0014286 -0.76035166 -0.16297887 -0.5433137 -1.0984032 -0.7947087 -0.94475836 -1.3758594
0.257163 1.0317367 -1.216254 -0.5973678 -0.21400441 -0.5694407 -0.3147742 -0.20625733
-0.34963176 0.38172144 -0.57920754 -0.49384978 -0.88378185 -0.11346775 -0.9143116 -0.23610866
-0.83758944 -0.34879914 -0.14998956 -0.70984197 -0.44643602 -0.9610011 -0.29185793 -0.65499717
0.1264346 0.11062449 -0.8533339 -0.48552382 -0.7842224 -0.41066718 -1.4224226 -0.26495835
-0.0651659 -0.6111604 -0.39655355 0.32261768 -0.43852425 -0.09138158 0.3267196 -1.6078026
-0.39790645 -0.54010224 -0.49181926 -1.5198988 -0.8088641 -1.0977844 -0.9288896 -0.6926971
-0.5718591 -0.96373814 -0.22183138 -0.72885656 -1.0305781 -0.30972326 -0.058705922 -0.5309542
0.093676984 -0.032884233 -0.30970344 0.021551805 -0.1498056 0.6734312 0.26000857 0.24351193
-0.54333234 -0.38042834 -0.054555167 -0.074435465 0.3447946 -0.3209239 0.24632508 -0.9565386
0.6941906 -0.322325 0.07642793 -0.42391738 -0.11757771 -0.2088847 0.23733644 -0.19707116
-0.27984533 -0.46121198 -0.20844847 -0.06701584 -0.3135966 0.6376329 0.09533663 -0.53459376
-0.6602805 0.30846217 -1.2088441 0.6067723 -0.70954114 0.96187365 0.096311934 -0.31805182
-0.4559607 -0.24823041 -0.17139761 0.21900372 0.044372335 0.40363878 0.5997966 0.103727534
0.6481283 -0.31611836 -0.4459789 0.0066222497 0.37591192 0.26378244 -0.3777975 -0.096209645
0.6330752 -0.11629389 -0.41196162 0.045509577 -0.16459765 -0.06417846 0.45825467 -0.34492567
-0.88886297 -0.5430868 -0.648121 -1.4073241 -0.9919495 -0.558001 -0.8002564 -0.7954604
-0.15790194 -0.937188 -0.8236323 -1.2638884 -0.46136972 -1.4600433 -1.2933762 -0.9273735
-0.7969459 -1.2300946 -0.02077739 -0.1628899 -0.8125441 -0.48255333 -0.8727345 0.52448606
-0.789159 -0.92267066 -0.8489694 -0.61148185 -0.18517785 -0.9666068 -0.818048 -1.2941606
-0.8686068 -0.123071305 0.25040925 -1.2259903 -0.9937959 0.1933519 -1.1394086 0.10774844
-0.3462782 -1.7544633 -1.352354 -1.2508702 -0.37641752 -0.22783023 0.6507847 -0.24959888
-0.36598837 -0.6077615 -0.7283213 -1.1653286 -1.1226189 -1.3270667 -0.5524455 -0.6426027
-1.0782329 -0.57111347 -0.9823623 -0.82848495 -1.0391196 -0.44944704 -0.34120998 -0.8238814
00000000: 4baa 6bbf 2704 5cbf 402d c7be 012d a0bf
00000010: 1fee 94bf dbf0 20bf 1411 26bf d037 78bf
00000020: 7ebb a9bd ed48 29bf 939c 52bf a1c0 58bf
00000030: de35 12bf 2c96 0fbf 9b19 e5be 92f2 04be
00000040: 2e04 5ebf 4ec3 9fbe bdc1 3cbf c57c 30bf
00000050: 5d35 89bf 413c b43e 3c16 72bf a092 7a3e
00000060: cba9 36bf 4282 06bf 41ba fbbe daa9 afbe
00000070: 4008 72bc 8f07 63bf f8e0 a4bf 5b2d 66bf
00000080: 069f 9abe c6c6 923e 047d 97bd a25b 42bf
00000090: ef8a 56bf a2b5 eabe b809 8fbf b082 cfbe
000000a0: 244c 2ebf af41 30bf 3c56 9fbe 4e87 86be
000000b0: 0bff 36bf 36e3 863d 15eb 18bf a5d0 0abf
000000c0: 83f9 debe 1cee 70bf 36fe 34bf bd78 afbf
000000d0: 0d06 35bf be95 b7bf 8471 69bf ffc1 73bf
000000e0: 4b52 10bf e208 0fbf 984a 89bf 40a5 3dbf
000000f0: c1b8 babf c6a8 893e 0c48 a0bd 917a 0ebf
00000100: d02e 80bf 68a6 42bf efe3 26be 9b16 0bbf
00000110: 7a98 8cbf 0872 4bbf afdb 71bf 291c b0bf
00000120: deaa 833e f30f 843f 36ae 9bbf 19ed 18bf
00000130: f923 5bbe dec6 11bf 152a a1be 1f35 53be
00000140: ef02 b3be fe70 c33e f246 14bf e1d9 fcbe
00000150: 873f 62bf c861 e8bd 5310 6abf 78c6 71be
00000160: 436c 56bf cd95 b2be dd96 19be 34b8 35bf
00000170: 4393 e4be 2b04 76bf 676e 95be e5ad 27bf
00000180: 1278 013e 188f e23d 1774 5abf 9496 f8be
00000190: cdc2 48bf f842 d2be f211 b6bf 9fa8 87be
000001a0: b375 85bd 0275 1cbf 1109 cbbe 252e a53e
000001b0: 4086 e0be 4426 bbbd cb47 a73e 7acc cdbf
000001c0: 65ba cbbe 2444 0abf bccf fbbe 0b8c c2bf
000001d0: b811 4fbf 3384 8cbf b5cb 6dbf 9954 31bf
000001e0: 5c65 12bf 8bb7 76bf c427 63be 5896 3abf
000001f0: fce9 83bf 0c94 9ebe 9f75 70bd 9dec 07bf
00000200: b8d9 bf3d 9eb1 06bd 7391 9ebe 698d b03c
00000210: a466 19be fd65 2c3f d81f 853e 315b 793e
00000220: d417 0bbf 81c7 c2be 3d75 5fbd 9f71 98bd
00000230: eb88 b03e 2350 a4be a43c 7c3e b7df 74bf
00000240: 7ab6 313f c807 a5be 3f86 9c3d b30b d9be
00000250: 95cc f0bd dfe5 55be 5308 733e 06cd 49be
00000260: e347 8fbe fa23 ecbe 8473 55be 9a3f 89bd
00000270: bc8f a0be e93b 233f da3f c33d 23db 08bf
00000280: 2508 29bf c1ee 9d3e 67bb 9abf 6e55 1b3f
00000290: 7da4 35bf 5a3d 763f 313f c53d b0d7 a2be
000002a0: ae73 e9be 1d30 7ebe db82 2fbe 8342 603e
000002b0: c4bf 353d bea9 ce3e 458c 193f 1a6f d43d
000002c0: bceb 253f 44da a1be 5957 e4be 75ff d83b
000002d0: 8777 c03e 7e0e 873e ad6e c1be 9009 c5bd
000002e0: 3711 223f 7e2b eebd a2ec d2be 4068 3a3d
000002f0: 498c 28be ff6f 83bd 5ba0 ea3e 199a b0be
00000300: 868c 63bf bd07 0bbf 42eb 25bf 3223 b4bf
00000310: 67f0 7dbf 27d9 0ebf 9add 4cbf 4ba3 4bbf
00000320: 0cb1 21be 8eeb 6fbf 91d9 52bf 18c7 a1bf
00000330: a738 ecbe b3e2 babf 5a8d a5bf 5a68 6dbf
00000340: a604 4cbf bd73 9dbf 5835 aabc 9ccc 26be
00000350: e402 50bf 3b11 f7be 876b 5fbf b844 063f
00000360: 5306 4abf 2534 6cbf 0f56 59bf 138a 1cbf
00000370: 439f 3dbe 8b73 77bf 986b 51bf 0ea7 a5bf
00000380: 045d 5ebf cf0c fcbd a435 803e 40ed 9cbf
00000390: 6869 7ebf 0afe 453e 24d8 91bf 37ab dc3d
000003a0: 604b b1be 4192 e0bf f019 adbf 841c a0bf
000003b0: ccb9 c0be 544c 69be d399 263f d996 7fbe
000003c0: d462 bbbe 4296 1bbf 4473 3abf 7d29 95bf
000003d0: fab1 8fbf 52dd a9bf 116d 0dbf 9c81 24bf
000003e0: 8903 8abf 7e34 12bf 187c 7bbf 9717 54bf
000003f0: df01 85bf ec1d e6be 13b3 aebe e4e9 52bf

fc.weight f4 [5, 64]
-0.78494966 0.53698885 -1.1322833 -0.22762664 1.116837 -0.45764735 -0.19467787 0.09557443
2.8283412 -2.5095243 -0.3275559 -0.9510573 1.6652061 -0.22780293 1.5605487 0.010291434
-0.4672255 0.39374128 1.0483271 1.946395 -1.9518063 2.5062952 -0.16444841 -0.509763
-1.381355 0.08400158 -1.1828887 0.042887464 0.45852214 -2.6858728 -0.955879 1.9563243
-0.7952739 2.282292 2.4346173 0.77059406 0.62067074 0.40743417 -0.6869677 0.051476855
0.16598581 0.8233338 2.478441 -1.1001099 1.4993988 3.230616 -0.7100389 -0.4882847
1.5655737 -0.45594117 -1.3346965 0.6925908 0.34504077 1.7979989 -1.4728221 -0.86209834
0.96633327 3.145292 -0.974012 -1.9563437 -0.61129594 1.2987028 0.36582196 3.4112465
0.62323415 -0.9953942 1.2751391 -1.2069246 -1.1550839 -1.8465238 -0.77466637 0.831023
-1.4321867 0.0724454 -0.78450346 1.2930636 -1.9000977 1.7809954 1.037988 -1.7981064
-0.41486686 -0.48049122 -0.7663778 -1.9649005 1.2969797 1.1528751 1.8692153 0.40711161
0.47827655 2.850871 1.6691841 -0.20691521 -1.7388644 2.0039465 -0.10036571 0.4715266
0.6021768 -0.29912788 -2.7709439 -0.38558894 -0.56889135 -0.06318656 2.1185966 0.32010967
3.0639415 -1.2572393 -0.36959326 -1.3349853 -0.92181486 -1.0072101 -0.19457707 -2.6236472
-0.974085 0.99076676 -1.0811366 -2.1814923 -0.30835208 -2.868133 -0.8447831 2.4423587
-0.19263302 -0.8559174 1.443523 -1.6146321 0.85283375 0.3073408 -0.42174867 -1.9020536
2.3608928 1.3615141 1.9449863 1.2997707 -1.0698311 0.89366955 -3.0495713 -1.8805424
-0.89285976 2.5391762 0.6197242 -2.890151 -3.9863887 -3.5265203 -1.6921474 -0.3266244
-1.6518193 -1.0289072 -0.99358845 1.8905599 1.2419671 -4.544968 -1.4343013 0.04994018
3.5040607 7.017267 -5.623415 -1.5743792 -4.706236 -2.8128843 1.8470894 -0.92640716
-0.0678186 -2.1748226 -0.3507963 4.880052 1.3198813 1.5707096 3.1028807 -0.46818763
0.03314715 5.3358326 -0.2531275 -7.423508 -1.0223724 -0.95494455 5.462211 2.2532587
-2.27313 1.02172 2.8584263 0.95552886 -0.09454523 -1.777144 2.901276 0.4415548
1.1647216 -0.5398144 0.45409554 -1.2880353 -3.9910228 -0.9245619 -2.4895732 3.6698205
1.640325 1.5468738 -0.4013976 3.791019 0.61199784 0.11642462 -0.12510793 0.9555256
-1.9075582 2.8719347 0.034094542 -3.6343608 1.1846191 0.39763397 -3.8404553 2.7607672
-2.6692927 2.8363578 -2.1219866 2.4443715 1.2305075 0.44887817 -0.56933856 -0.45009136
0.5400676 -1.3912017 -1.9041632 -1.2945852 3.957801 0.49505436 2.5700576 -2.6824594
2.1726305 1.8713627 3.981196 0.8223779 1.7093426 1.4526403 0.26261094 1.8465872
-0.042688545 1.4816628 2.680971 -2.383814 1.6352575 -2.5076723 -1.230138 1.3320192
-1.3704244 -1.4226917 -1.4841827 -1.5083686 1.9088727 0.63955164 -0.34103236 2.3906944
-3.2920651 -2.2621388 0.61343336 2.7834482 0.05464097 1.5155452 0.3634389 -0.7423015
00000000: 76f2 48bf 1a78 093f a9ee 90bf f516 69be
00000010: 84f4 8e3f c150 eabe a359 47be 87bc c33d
00000020: 8b03 3540 0c9c 20c0 68b5 a7be 7e78 73bf
00000030: 7925 d53f 2c45 69be 0fc0 c73f 679d 283c
00000040: 2e38 efbe 7598 c93e 952f 863f 7923 f93f
00000050: cad4 f9bf 2467 2040 2a65 28be d47f 02bf
00000060: 3ed0 b0bf 0509 ac3d e668 97bf c4aa 2f3d
00000070: 6ac3 ea3e 57e5 2bc0 7cb4 74bf d668 fa3f
00000080: 1297 4bbf 1211 1240 c5d0 1b40 a745 453f
00000090: 47e4 1e3f 369b d03e 1ddd 2fbf 65d9 523d
000000a0: 2ff8 293e 01c6 523f c79e 1e40 67d0 8cbf
000000b0: 4dec bf3f 6ac2 4e40 1cc5 35bf 7400 fabe
000000c0: b864 c83f 1f71 e9be 56d7 aabf a14d 313f
000000d0: 2fa9 b03e d424 e63f 6f85 bcbf 7ab2 5cbf
000000e0: 9e61 773f 774c 4940 da58 79bf 7869 fabf
000000f0: e47d 1cbf e53b a63f 044d bb3e dd51 5a40
00000100: 468c 1f3f 27d2 7ebf c237 a33f 817c 9abf
00000110: cad9 93bf e45a ecbf 8950 46bf ecbd 543f
00000120: e551 b7bf 415e 943d 38d5 48bf 1c83 a53f
00000130: 6736 f3bf a8f7 e33f cadc 843f 5a28 e6bf
00000140: 6e69 d4be f202 f6be 5631 44bf dc81 fbbf
00000150: 6e03 a63f 6991 933f 7242 ef3f ef70 d03e
00000160: aae0 f43e ac74 3640 d3a7 d53f 95e1 53be
00000170: 1c93 debf a940 0040 8a8c cdbd ef6b f13e
00000180: 4228 1a3f 4a27 99be 2557 31c0 ea6b c5be
00000190: dda2 11bf f567 81bd 1697 0740 6ae5 a33e
000001a0: 9e17 4440 38ed a0bf 543b bdbe cce0 aabf
000001b0: 0ffc 6bbf 43ec 80bf 363f 47be d6e9 27c0
000001c0: a25d 79bf e4a2 7d3f af62 8abf 929d 0bc0
000001d0: 53e0 9dbe 7e8f 37c0 b543 58bf 9b4f 1c40
000001e0: 9741 45be 671d 5bbf 5dc5 b83f 44ac cebf
000001f0: 5053 5a3f c65b 9d3e 71ef d7be 7e76 f3bf
00000200: de18 1740 1846 ae3f 50f5 f83f e35e a63f
00000210: 3af0 88bf 87c7 643f 2d2c 43c0 9db5 f0bf
00000220: 7592 64bf dd81 2240 3fa6 1e3f 3cf8 38c0
00000230: fe20 7fc0 82b2 61c0 4998 d8bf 503b a7be
00000240: d16e d3bf 3bb3 83bf d05b 7ebf defd f13f
00000250: c7f8 9e3f 6170 91c0 2f97 b7bf 138e 4c3d
00000260: 8842 6040 748d e040 04f3 b3c0 4285 c9bf
00000270: 7c99 96c0 4c06 34c0 6d6d ec3f 0529 6dbf
00000280: 7ae4 8abd 4b30 0bc0 939b b3be 6329 9c40
00000290: dff1 a83f 030d c93f 9995 4640 4ab6 efbe
000002a0: 4ec5 073d 24bf aa40 ed99 81be 618d edc0
000002b0: 19dd 82bf 3f77 74bf 6fca ae40 6435 1040
000002c0: f67a 11c0 b9c7 823f 75f0 3640 8a9d 743f
000002d0: eea0 c1bd 7479 e3bf 82ae 3940 7913 e23e
000002e0: 9915 953f 4731 0abf 367f e83e 57de a4bf
000002f0: eb6c 7fc0 17b0 6cbf 2b55 1fc0 57de 6a40
00000300: 2bf6 d13f f6ff c53f fc83 cdbe 0ea0 7240
00000310: e4ab 1c3f 0870 ee3d 4b1c 00be 539d 743f
00000320: de2a f4bf c7cd 3740 b8a6 0b3d 5e99 68c0
00000330: 99a1 973f ae96 cb3e 05ca 75c0 69b0 3040
00000340: b1d5 2ac0 e386 3540 a1ce 07c0 9570 1c40
00000350: 4581 9d3f 5cd3 e53e 2cc0 11bf 6072 e6be
00000360: df41 0a3f e612 b2bf 9fbb f3bf f8b4 a5bf
00000370: 9d4c 7d40 c477 fd3e d37b 2440 6aad 2bc0
00000380: 610c 0b40 d088 ef3f eacb 7e40 5c87 523f
00000390: bdcb da3f 1ef0 b93f f174 863e f85c ec3f
000003a0: 2fda 2ebd 20a7 bd3f 0795 2b40 6990 18c0
000003b0: 1e50 d13f b47d 20c0 2975 9dbf 9b7f aa3f
000003c0: 116a afbf c31a b6bf b3f9 bdbf 3912 c1bf
000003d0: f155 f43f a8b9 233f cb9b aebe 2301 1940
000003e0: 32b1 52c0 e2c6 10c0 f809 1d3f 0424 3240
000003f0: 36cf 5f3d 63fd c13f aa14 ba3e 7907 3ebf

fc.bias f4 [5]
-0.051135954 -1.8036557 -1.6519995 -1.690511 -5.812485
00000000: ef73 51bd 31de e6bf b874 d3bf aa62 d8bf
00000010: e1ff b9c0
